footstep_detector_realistic.tflite (tflite, 29320 bytes, 15 tensors)

arith.constant f4 [16]
00000000: 81cd d53c 7925 80bc 7abf e73d 9069 0fbd
00000010: 103f 823c c4d5 d93d 4177 d83d 02a6 aa3c
00000020: 6bc7 7b3d ac99 a23d 7978 e83c e39d a6bd
00000030: f144 eb3c 1b08 963c c9dd ee3d 2c88 6bba
0.026098968 -0.015642868 0.11315818 -0.03501278 0.015899211 0.10636476 0.10569621 0.020831112
0.061469477 0.07939467 0.028377758 -0.08135583 0.028719397 0.018314412 0.11663396 -0.000898483

arith.constant1 f4 [16, 3, 3, 1]
00000000: d182 ea3d 15e7 2e3e 4a16 47be e51d 8e3e
00000010: b898 613d 2327 72be 6be5 af3d 456b bbbd
00000020: 641d aebd 0e46 393e 453e 1a3e 9841 2b3e
00000030: 6ee8 4e3e 7373 053e eb34 603d b598 8fbd
00000040: 0f62 0f3d 9e01 63be edd9 7d3b c73a 95bd
00000050: 560a 05be c781 04be e367 70be 1e74 b4bd
00000060: 6a83 523e bd27 debd 3bf3 9abe bcaa 84be
00000070: b8ab 6cbe c038 113b af37 0d3e 5056 b7bd
00000080: c8b9 313e 75f8 5f3e 1d6b 723e e059 1f3e
00000090: bec2 17be 0d2f d7bd 0165 7f3e e226 8a3b
000000a0: 38ff 81bd 7dc6 2a3e e058 7ebe 8407 203d
000000b0: 985c 743e df37 2dbd 6150 083e 8dc0 6bbe
000000c0: a99d 863d acbc 5abe 4344 21be 3875 5c3e
000000d0: 0912 d1bd 46fc 9fbe 89d1 68be eed4 febd
000000e0: 6ee2 8a3d c81a 6abd 0a29 d0bd d692 a6be
000000f0: ffab 51ba c818 2fbe 1d25 fabd 83ff 81be
00000100: 12b8 5abe 5f57 65be bcb7 763d 029a 1ebe
00000110: 0c10 ea3d d39c 673e 9848 edbc e3d7 ae3e
00000120: 8f19 1c3e af9d b63d 193c 103e 5016 15be
00000130: 49d4 523e 53c5 6f3e 7db7 11bd 6ab4 163c
00000140: 8db6 3e3e b26b 2b3e ceab e23d 8519 183e
00000150: 849c 0f3e 841a 143e 6b26 db3d ae88 813c
00000160: f834 613e 7b68 263d ef2e c6bd 2a5a 863e
00000170: d878 4d3e 7d69 a73d 37bf 0b3e 7c1e f4bd
00000180: bdb6 da3c 8d0c e53d 0c1e a4bc 2edc 77be
00000190: a528 6d3d 3d9f 5d3c 9fbb 8a3b c8c3 743e
000001a0: ebea 5b3c d8a6 1d3e 5410 4b3e 6ac2 313e
000001b0: e7f4 003e 96fd 583e 753c 593d 6f33 853d
000001c0: 2928 663e 9f93 0d3e 4646 63be 20f7 d3bd
000001d0: 3c5a 27bd 0aa4 61be e7e0 363e 954f d63c
000001e0: a273 263e 1456 07be 99c2 61bd 2438 1dbe
000001f0: 8b32 2abe 25cb 9e3e 0de9 19be 5feb 4fbe
00000200: df1c 2bbe 145f 5b39 135f 4cbe f0e1 06bd
00000210: eef3 80be a152 77be bf8d d0bc 3945 be3c
00000220: f11e 073e f732 273e a4b1 3fbd 6e08 4abe
00000230: 0a9d 3cbe c86a 5ebd 85db debd eb8c 1a3e
0.114507325 0.17080338 -0.19442096 0.27757183 0.055077285 -0.23647742 0.0858868 -0.091513194
-0.085016996 0.1809313 0.15062816 0.16724241 0.20205852 0.13032322 0.054737967 -0.070115484
0.035005625 -0.22168586 0.003873463 -0.072866015 -0.12992224 -0.12940131 -0.2347713 -0.0881121
0.20557943 -0.10847423 -0.30263695 -0.2591151 -0.2311238 0.002215907 0.13790773 -0.0895201
0.17356026 0.21872123 0.23673673 0.15561628 -0.14820382 -0.10507021 0.24940874 0.004216061
-0.06347507 0.1667728 -0.2483859 0.039069667 0.23863447 -0.04228961 0.13311912 -0.23022671
0.0657304 -0.21361035 -0.15748696 0.2152909 -0.10208518 -0.31247157 -0.22736181 -0.12442957
0.06781469 -0.057154447 -0.101640776 -0.32533902 -0.00079983467 -0.17099297 -0.1221411 -0.25390252
-0.2135928 -0.2239661 0.060233817 -0.15488437 0.11428842 0.22618417 -0.02896528 0.34149083
0.15244125 0.089167945 0.14085425 -0.14559293 0.20588793 0.23415117 -0.03557538 0.0091982875
0.18624325 0.16740301 0.110679254 0.14853485 0.1402455 0.1446324 0.10700687 0.015812244
0.21992862 0.040626984 -0.096769206 0.26240665 0.2006563 0.08174417 0.13647161 -0.11919877
0.026698465 0.111840345 -0.020033859 -0.24205086 0.05790009 0.013526735 0.004233792 0.2390281
0.013422708 0.15395677 0.19830447 0.1735932 0.12593423 0.21190485 0.053036172 0.06503951
0.22476257 0.13825844 -0.22194776 -0.1034987 -0.04085754 -0.22035232 0.17859231 0.026160995
0.16255048 -0.1321643 -0.055117223 -0.15353447 -0.16620843 0.31014362 -0.15030308 -0.2030463
-0.16710232 0.00020920887 -0.19958143 -0.032930315 -0.25186104 -0.24152614 -0.025458215 0.023226367
0.13195397 0.16328035 -0.04680027 -0.19729778 -0.1841928 -0.054301053 -0.10881714 0.15092818

arith.constant3 f4 [64]
00000000: 9a5f e4bb ee7c afbc 6492 17bd c9b9 cb3a
00000010: 89e5 0f3d c550 923b 2f6e 843c cf3f 923b
00000020: 29b2 eebb c29f a03b cee9 ddbc 6625 b1bb
00000030: bd1f 73bb a279 2dbc ec48 ae3b 1aac 0bbd
00000040: d14e 10bc a05b 273c a18d 23bc a2d1 ebbb
00000050: 4364 613c 527e 84bc b767 c23c b977 53bc
00000060: b634 f3bc 0a7a debc 4dfb cd3c 81af 7abc
00000070: 2388 383b c190 57bc ee09 bbbc f571 2fbc
00000080: d631 95bc fe2a 0bbc b6b7 af3c 8b26 e9bc
00000090: ad74 a63c e0c4 b63c fd1b 0abd 6ecb 80bc
000000a0: 11ad e838 19da de3c b5d4 74bc 0afe 2dbc
000000b0: 66bc 863a e624 953c a22e 3039 3938 b0bc
000000c0: 8125 fbbc b01b b4bc 6388 b6bc 7ede 0739
000000d0: d3c5 9c3c ba91 833c f22e 8abc 1728 b13c
000000e0: 55a3 fbbc bf3c 3d3c d40e fabc 6208 58bc
000000f0: c926 ec3b 88cc 0d3d 341d 51bc 5f5a 8b3c
-0.0069694044 -0.021421876 -0.037004843 0.0015543039 0.03513101 0.004465195 0.01616582 0.004463173
-0.007284422 0.004901857 -0.027089026 -0.0054060696 -0.0037097775 -0.010588082 0.0053187516 -0.034099676
-0.008807854 0.010214716 -0.009982497 -0.007196621 0.013756814 -0.016173515 0.023731096 -0.012906962
-0.02968822 -0.027157802 0.025144244 -0.015300632 0.0028157316 -0.013157071 -0.022831883 -0.010708322
-0.01821224 -0.008494137 0.021449905 -0.028460762 0.020319307 0.022310674 -0.033718098 -0.015722003
0.00011094858 0.027203606 -0.014943291 -0.01061965 0.0010279536 0.018206071 0.0001680204 -0.021511184
-0.030657532 -0.021985859 -0.022281831 0.00012957488 0.019137299 0.016060699 -0.016868088 0.021625562
-0.030717531 0.0115501275 -0.030524649 -0.013185592 0.007206772 0.034618884 -0.01276331 0.017010866

arith.constant4 f4 [32]
00000000: dc78 cdbd f3e3 22bd 43f9 1ebd 071b 3abd
00000010: dbd5 7abd 6977 62bd 8c38 5abd 739f e5bd
00000020: 859d 613c c70b dbbd b9cb 9dbd 1859 10bd
00000030: f69f 9ebd be9e 5abd 072b abbd 83b1 92bd
00000040: f824 303c 3df3 2ebd 6a21 89bd dd03 8bbd
00000050: 1c9c b8bc 18e0 993d 29ab 88bd fef8 1abd
00000060: 52f2 c4bc c607 713c 4a89 e4bc 4965 bebd
00000070: 98f7 64bd 63f1 9dbd f6d9 7abd e2cb 4fbd
-0.10032818 -0.03976817 -0.038811933 -0.04543593 -0.061239105 -0.05528966 -0.053276584 -0.11212053
0.013770466 -0.10695606 -0.07704873 -0.035241216 -0.07745354 -0.053374045 -0.08357816 -0.07162764
0.010751002 -0.04271244 -0.06695826 -0.06787846 -0.022535376 0.075134456 -0.06673271 -0.037835114
-0.024041329 0.014711326 -0.027897496 -0.09296662 -0.055900186 -0.077120565 -0.06124302 -0.050731547

arith.constant5 f4 [32]
00000000: b699 643d e9e3 3f3d 575e df3c dd1a 0cbb
00000010: bd38 aabb 7c43 8a3d c2f9 783c a7a6 643d
00000020: 6f8b 89bc 4d15 c23d eae3 7f3d a2bf 383d
00000030: 120b 98bd 675a f63c b832 cebc 9fc1 123d
00000040: 12f4 7b3b e5f0 9c3d 8adc c63d 0e0f 9e3d
00000050: eb16 6a3d d067 11bc 6a12 9f3d bc31 1e3d
00000060: dec2 be3d 6948 c33c e37b 723d 8ed5 25bd
00000070: 7cb8 b53c a749 1f3e d41d 173b 711c 413d
0.055810653 0.04684821 0.027266664 -0.0021378316 -0.005194752 0.06751153 0.015196266 0.055822995
-0.01679012 0.09476719 0.062473215 0.04510463 -0.074239865 0.030072404 -0.025170669 0.035829183
0.0038445038 0.076631345 0.09710033 0.07717715 0.057150763 -0.0088748485 0.07767184 0.03862165
0.09314512 0.023838239 0.05920018 -0.040486865 0.022182696 0.1555544 0.002305855 0.047146264

arith.constant7 f4 [32, 11]
00000000: 25cf a3bd e4b3 11bb 4eac 0b3e 335e bcbc
00000010: e3d7 48be 933c 23be 76b8 53be 66d5 2b3e
00000020: 8f0b db3d a71f e53d d6dd 99be 738b 153e
00000030: 1d4d 7abe 2134 313e 62b9 a53e 6691 963d
00000040: 5af9 5abe ba9f 9ebd a6e8 97be fe31 07bc
00000050: 0ca8 ae3e b901 7dbe 2bdc 56be 97d1 5c3d
00000060: de78 843e d973 9a3d d6a6 8b3e 36ac 903e
00000070: 95a8 b3be 6c61 b9bd 9b7b 453e a0f2 46bd
00000080: 565b 94be dbb5 af3e 17a8 d4be 481b bc3d
00000090: 2e79 8ebd 55e8 6b3e 43fe 1c3e 58c8 3ebe
000000a0: abf3 bfbe 725f 953e 9356 9d3e dcd1 ccbd
000000b0: 52f4 b0be 26a4 a03e 292c 623e ef01 0fbe
000000c0: da81 833e 1604 4e3e 5ac1 46be 2c73 83bd
000000d0: 3c1c 6cbe 0c95 1abe ec75 0e3e 013c 3e3e
000000e0: 59a3 e5bd 9d41 4ebe 8277 33bd 2a57 7a3d
000000f0: 007c 313e b882 523e 7270 23be 3f20 3d3c
00000100: 1525 983e 2bee 913e 556d 74be 1da3 553e
00000110: 7973 933e 8507 e2bd de4a 913e 78ae 3f3e
00000120: 4f18 39be 6fec 3a3e 651b 54be ab0e 4abe
00000130: 3cf3 023d 04b9 59be b123 b9be 2fff 12be
00000140: b6db 89be ea79 cb3d 648e 34bc e6e5 893d
00000150: bd79 b4be f8eb 2cbe f14c 75be 2f47 4f3e
00000160: dfc9 b33e 27a8 04be 7133 0a3e f4b7 19be
00000170: 64f5 cbbe 890f be3d 6279 07be 90df 8d3e
00000180: e17f 033e d25b 283c 6167 71be 8ee4 87bd
00000190: a936 b7be 2a0e 94bd 62dc 9fbb 58e4 65be
000001a0: 2e11 dbbd d945 6f3e 43f3 e3bd ad41 903e
000001b0: db2c aabe 8f33 aa3e fa41 09bd ea93 163e
000001c0: 24d1 23bd 3f3e fabd 76a7 cb3d 33d3 5abe
000001d0: 87b1 e83d 2d96 4e3e 247b 1ebd 2d82 9b3e
000001e0: 8194 97be 7315 0b3e 4644 363e 9e6e 603e
000001f0: 2c2d 863e 695e e03e 2ab9 40be febc b4be
00000200: b075 ffbd d5ac a6be 7fef cd3d 826f 9f3c
00000210: 363d cdbd fceb 3ebe e761 a53e e7ba 8b3d
00000220: bcbc 74be b6a0 4a3e 2ecf 8b3e c9a9 183e
00000230: 8358 5a3e 73cf d53a d370 b3be ade7 ac3e
00000240: d735 0cbe 8186 213e b25a 533e 441c bbbe
00000250: e7c7 d63d f4ca 243d a9c7 09bd e45f 82be
00000260: 202b 373e 149d 34bd 619f 4dbe d8b7 31bd
00000270: c6da 233e 28ea a53e 9727 133d de2e 963e
00000280: 9160 83be b838 4cbe 9b5f 0e3e 243b 47bd
00000290: fb52 e03d 4054 2d3d 00c4 b2bc 5865 71bc
000002a0: 1e11 8ebe 2cb7 8bbd d79c 80be c89a 4ebe
000002b0: db1a b3bd fbf7 04bd e443 a73c f25f 0d3e
000002c0: 2238 9fbe b7cd 803e c8e9 093e bd67 eebc
000002d0: b885 39bd 7857 5dbe 89ac b9be dd9c 893e
000002e0: afb2 9a3e 195d ccbe 3d0e 11be bbd5 61bc
000002f0: cbfe 9e3e 876c a33e 538b 803e fff2 653d
00000300: 887f f8bd f734 0dbe 2be8 a9be 3a3e 9bbe
00000310: 3754 71be 193c 753d c99b 1bbe bab4 4fbd
00000320: 7c56 603d 501a 0ebe 8b77 163e c533 093d
00000330: a11d 1f3e eb43 59be 9ac2 903e d088 5a3e
00000340: 9d98 c13d 54ed 693e b85b 99bd 32d7 7dbe
00000350: a949 fe3d 8489 b1be 01ac 09be 5ea2 ae3e
00000360: 8977 a43e 4b7d 5a3e 819f 963d 0797 6c3e
00000370: 4feb 093e f70b 483e dca1 9b3e 5f2b 35bd
00000380: 7115 03bc b4a2 493e 3a71 1d3e f303 c73d
00000390: 4095 823e 7146 82be 945f 723e b226 33be
000003a0: b850 e7bc 1667 173c fcce 273e cdd3 da3e
000003b0: b63e cc3d 4334 87bd aa70 d63d 15f6 673b
000003c0: db84 0ebe 0570 993d 3c60 103e cfc5 80be
000003d0: 98af 2a3d 6c33 78be 645d ac3d 8d48 d43d
000003e0: 59a6 2ebe 1842 1f3e 2d8a f23d 4345 9c3e
000003f0: fe41 583d 5ebe 833e 9728 ebbe 135f bd3b
-0.07998494 -0.0022232467 0.13639948 -0.022994136 -0.19613604 -0.15941076 -0.20675835 0.16780624
0.10695564 0.11187678 -0.3005206 0.14603977 -0.24443479 0.17305042 0.32367998 0.07351951
-0.21384183 -0.07745309 -0.29669684 -0.008251665 0.34112585 -0.24707688 -0.20982425 0.053910818
0.25873464 0.075416274 0.27275723 0.28256387 -0.35089555 -0.09051785 0.19285433 -0.04857123
-0.28975934 0.34318432 -0.41534492 0.09184891 -0.06956707 0.23037846 0.15331368 -0.18631113
-0.3749059 0.29174381 0.30730113 -0.10000965 -0.34561402 0.31375235 0.22087158 -0.13965581
0.25685006 0.20118746 -0.19409695 -0.06418452 -0.23057646 -0.1509592 0.13912171 0.18577577
-0.11212797 -0.20142217 -0.043815143 0.061118282 0.17332458 0.20557678 -0.15960863 0.011543333
0.2971579 0.2850202 -0.23869832 0.20863004 0.28799036 -0.110365905 0.28377432 0.18718898
-0.18075679 0.18254255 -0.20713575 -0.19732158 0.031970248 -0.21261984 -0.36160043 -0.14355157
-0.2692544 0.09935363 -0.011020277 0.06733303 -0.3524913 -0.1688689 -0.23955132 0.20241998
0.35114953 -0.1295477 0.13496186 -0.15011579 -0.39835656 0.09280307 -0.13229898 0.27709627
0.1284175 0.010275798 -0.23574592 -0.0663539 -0.3578389 -0.07229264 -0.0048785666 -0.22450387
-0.10696636 0.23366489 -0.11130383 0.28175107 -0.33237347 0.3324246 -0.033510186 0.14704862
-0.039994374 -0.12218904 0.0994405 -0.21369629 0.11361986 0.20174475 -0.038691655 0.30372754
-0.29605487 0.13582401 0.17799482 0.21917197 0.26206338 0.4382203 -0.18820634 -0.3530044
-0.12473619 -0.32553735 0.10055446 0.01946235 -0.10021441 -0.18644708 0.32301256 0.06822758
-0.23900121 0.19787869 0.27306503 0.14908518 0.21322827 0.0016312435 -0.35047016 0.33770505
-0.13692413 0.15773965 0.20640066 -0.36545002 0.10487347 0.040232614 -0.033637676 -0.25463784
0.17887545 -0.044095114 -0.2008033 -0.043388218 0.16001424 0.3240521 0.035926428 0.29332632
-0.25659612 -0.19943511 0.13903658 -0.048640385 0.10953327 0.042316675 -0.021821976 -0.014733635
-0.27747434 -0.06822047 -0.2511966 -0.20176232 -0.08745357 -0.032463055 0.020418115 0.13806131
-0.31097513 0.25156948 0.13468087 -0.0291022 -0.04529354 -0.21615398 -0.36264446 0.2687749
0.3021445 -0.39914778 -0.14165588 -0.0137838675 0.31053767 0.31918737 0.25106296 0.056139942
-0.121337 -0.13789736 -0.33184943 -0.30320913 -0.23567282 0.059871767 -0.15196146 -0.050709464
0.054769978 -0.13877225 0.1469404 0.033496637 0.15538646 -0.21217315 0.2827347 0.21341252
0.09452937 0.2284444 -0.07488197 -0.24789122 0.12416393 -0.3467523 -0.1344452 0.3410825
0.32122448 0.21336858 0.07354642 0.23104487 0.1346867 0.19535814 0.30396926 -0.044230815
-0.0080007175 0.19690973 0.15375224 0.0971755 0.25504494 -0.25444368 0.23669273 -0.1749523
-0.028236732 0.009240886 0.16387552 0.42739716 0.09972899 -0.06601765 0.10470708 0.003539448
-0.13917868 0.07492069 0.1409921 -0.25150916 0.041671365 -0.24238366 0.0841625 0.103654005
-0.17055644 0.15552557 0.11842761 0.30521592 0.05279731 0.25731176 -0.45929405 0.005779156

arith.constant8 f4 [1, 32]
00000000: eb43 64be 0317 33be 4374 29be 70e5 83be
00000010: e99c 96be a741 213e cb67 0abe 8a51 823e
00000020: 7564 dbbe e286 a03e 8ed6 7f3e 0ad5 56be
00000030: d686 a3be d788 d9be 9ad4 4ebd 5803 23be
00000040: 481b 3fbe 8471 a03e 6eb9 da3e 3ba6 d13e
00000050: cbde afbe 31d4 98be 3c70 c23e 2733 65be
00000060: 3145 ce3e 28fa cc3e 9292 7abe d416 73be
00000070: 7b94 8fbe 849a 903e 5bad b4be 2b43 58be
-0.22291534 -0.17489247 -0.16548257 -0.25760984 -0.29416588 0.157477 -0.13516156 0.25452834
-0.4285008 0.31352907 0.2498419 -0.20979705 -0.3193881 -0.42487213 -0.05049572 -0.15919244
-0.1866275 0.31336606 0.42719597 0.40947136 -0.34349665 -0.2984939 0.37976253 -0.22382794
0.40287164 0.40034604 -0.24469975 -0.23739177 -0.2804297 0.28242886 -0.3528851 -0.21119373

arith.constant9 f4 [16, 3, 3, 1]
00000000: f9c5 19be f172 e1bc cd6e 8dbd 4c14 04be
00000010: 06f4 9d3d 6789 2f3e 85fb 473e 5a38 85bd
00000020: e18c 3abe 2812 103d 29b3 733d 0940 2c3d
00000030: eb9d b13d cd2c 9abd 530a afbc 3abd bc3d
00000040: adce 3f3e a016 2a3e 2f8a d0bd 0123 07be
00000050: bb9b 193d ee14 30be 0aad d23d e93e a2bc
00000060: fbf6 98bd d46e 443e 4b4b 633e 0c88 bb3d
00000070: c817 0ebe a49a 11be 1282 81bd 44b5 e43d
00000080: 1a3a b6bd d4cc 763d 5f81 03be aace 0b3e
00000090: 268b 023c e402 e8bd 0a6b 373e a1d8 a13d
000000a0: 2266 b6bd aee0 b6bd dec1 65bd 99ee 37bc
000000b0: 235a a7bd cadf bdbc 2a69 68be c989 86bc
000000c0: 903b a8bc 8797 63be c9e5 163e 9d8d 483d
000000d0: 7903 d13d d847 34bd 7d2f 44be 6af4 963c
000000e0: cdc4 00be 0509 613e bb64 2c3e d34b 0cbe
000000f0: 14f1 fabd dc5a b5bd 3256 833d addb 44be
00000100: a356 9ebd 546d bbbb 179f a23c 1ff1 d1bc
00000110: 7ddc d13c 2938 a3bd 094b 9d3d 29ca 143e
00000120: 8eb9 3abe 810b 173d 9c80 513e c2a5 fa3d
00000130: d0f9 be3d d687 f0bd 83ca 56be 8115 533e
00000140: 427e 403e c939 683e 5292 613d da76 d4bc
00000150: bc78 183e f3fd d3bd 8ade 703e e990 773e
00000160: 294a a23b 530f e3bd d486 633e eef9 2a3e
00000170: 32d0 dc3d f3ae 803e 5a53 cc3d fcd8 0d3e
00000180: 6593 a3bc 0007 603e af1e 47bd eb61 84be
00000190: 0560 5b3c f579 5ebe 77c2 8abe 6cd8 653d
000001a0: 2dcc 24be 2176 ed3c 4066 b9bd 2ba7 c9bd
000001b0: 6a35 4f3e 65cb 3f3e 7be3 503c c72a 603e
000001c0: b5c7 2d3e 6042 8cbd 462a f53d 23cf 0f3e
000001d0: 32c6 16be bdca 7cbe 8422 2dbd 90ff 72be
000001e0: bfd2 93be 8451 e3bd 8742 93bd b980 8ebe
000001f0: ccdc a1ba 57d1 65be fac7 4f3e 9d0e 1c3e
00000200: 6c91 7e3d 0997 533e 9cdf c03d 2b85 1b3e
00000210: f82b 90bd 11d4 1d3e c719 ff3d 941f 76bd
00000220: 68c2 fdba b29f 5dbe 8287 683d ccec 05bd
00000230: 222d 513d eaad 393d f3fb ac3d b851 e4bd
-0.15016927 -0.027520629 -0.06905899 -0.12898368 0.077125594 0.17142259 0.19529541 -0.06504889
-0.18217804 0.035173565 0.059497032 0.042053256 0.086726986 -0.07528076 -0.021367228 0.092157796
0.18731184 0.16610193 -0.101826064 -0.13196947 0.03750203 -0.17195484 0.10286911 -0.019805389
-0.07468983 0.19182903 0.2219669 0.09156808 -0.1387626 -0.14219147 -0.06323637 0.11167386
-0.08897801 0.060253933 -0.1284232 0.13653055 0.007967746 -0.11328676 0.17911926 0.07902647
-0.08906199 -0.08929573 -0.05609309 -0.01122632 -0.08171489 -0.023178 -0.22696367 -0.016423123
-0.020536214 -0.22225772 0.14736094 0.048963178 0.102057405 -0.044013828 -0.1915874 0.018427093
-0.12575074 0.21976097 0.168353 -0.137008 -0.12253013 -0.08855221 0.06412925 -0.19224425
-0.077313684 -0.00571982 0.01985125 -0.02562767 0.025617832 -0.07969696 0.076803274 0.14530243
-0.18234846 0.036876205 0.20459217 0.12238647 0.09324992 -0.11744659 -0.2097569 0.20613672
0.18798164 0.22678293 0.055071183 -0.02593558 0.14889807 -0.10351171 0.23522392 0.24176373
0.0049526882 -0.11086907 0.22219402 0.16696903 0.107818976 0.25133476 0.099768355 0.13852304
-0.019967744 0.2187767 -0.048613247 -0.25855955 0.013389592 -0.2172621 -0.2710149 0.0561146
-0.16093512 0.028986992 -0.09052706 -0.09846338 0.2023522 0.18729933 0.012749548 0.21891318
0.16970713 -0.068485975 0.11970954 0.1404386 -0.14724043 -0.24686714 -0.042269245 -0.23730302
-0.28871724 -0.11099532 -0.071904235 -0.27832583 -0.0012349128 -0.22443138 0.20291129 0.1523995
0.062150404 0.20663084 0.0941765 0.15187518 -0.070396364 0.15412928 0.124560885 -0.06008871
-0.0019360306 -0.2164295 0.056769855 -0.03269653 0.051068433 0.045331873 0.08446493 -0.11148399

arith.constant10 f4 [32]
00000000: 6572 1b3d 6a30 2cbd 14b7 2abd 9451 40bc
00000010: d254 2bbd 142b 2f3c 8c37 51bd 0653 f0ba
00000020: b48e 15bd dab4 08bd 4c89 063d 8750 49bc
00000030: 664e 17bd 973b d03b 15a7 96bc e1ca 3bbd
00000040: 271a 4a3c 5a78 34bc 6415 67bd e8ef 27bd
00000050: 9579 3cbd 493b d7bc 5fe5 e23b 21a3 c53b
00000060: b78f 18bd 9c7b c4bc 1024 d3bb c579 1bbd
00000070: bfc2 39bd 4bbc a4bc 8243 b1bc 5168 8cbb
0.037950892 -0.04203836 -0.041678503 -0.0117382 -0.041828938 0.010691423 -0.051078364 -0.001833529
-0.036513045 -0.0333756 0.03284578 -0.012287266 -0.03694 0.00635476 -0.018390218 -0.045847777
0.012335337 -0.011015022 -0.056416884 -0.041000277 -0.046014387 -0.026273387 0.006924316 0.0060314094
-0.037246432 -0.023984723 -0.006443508 -0.037957925 -0.04535174 -0.020109316 -0.021638636 -0.0042848964

arith.constant11 f4 [16]
00000000: f92d b03d 6a38 90bd 9c25 60bd 27ef 9d3d
00000010: 1b13 663d 8cf5 ec3c a8d5 c03d a283 1d3d
00000020: 8216 7bbd 9a35 84bd f07f 66bd 67f3 ebbb
00000030: ce10 90bd 74e3 b73c 06c2 7dbd 4db6 b63d
0.086025186 -0.0704201 -0.054723367 0.0771163 0.056170564 0.02892568 0.09415752 0.038455613
-0.061300762 -0.06455536 -0.056274354 -0.0072006467 -0.07034455 0.022447325 -0.061952613 0.0892149

arith.constant12 f4 [32]
00000000: 6ced c63d 6e79 8fbc 092e 1d3d e66b db3b
00000010: d31c 97bb ddca 873d 04bc 103d fe79 8dbc
00000020: 782d 313d 3121 91bc abd0 063d 24dc 043d
00000030: 4723 6e3d 45a7 aebc d8e6 2cbc fc60 5ebc
00000040: 9bde 81bd 7180 60bc 1bb4 c03d 97d7 53bc
00000050: 727f f03c 9860 363d 2f1c 1dbd 62e7 f9b9
00000060: bf64 f5bc 2c6d 3cbc d98b 783c 8b06 963b
00000070: 82fa 86bc 578c ad3a 05e9 883c a72e 2dbc
0.097132534 -0.017513957 0.03837398 0.006696212 -0.0046115904 0.0663049 0.035335556 -0.017270084
0.043256253 -0.017716022 0.032913845 0.032436505 0.05813911 -0.021319995 -0.010553084 -0.013572928
-0.06341287 -0.013702498 0.094093524 -0.012929819 0.029357646 0.044525713 -0.038356956 -0.00047665375
-0.029955266 -0.011500638 0.015170061 0.0045784167 -0.016476873 0.0013240677 0.016712675 -0.010570205

tfl.pseudo_qconst i1 [32, 3, 3, 16]
00000000: 37aa 5d29 496a 6b22 2ec3 f2f9 17aa 1b06
00000010: ceb5 0b30 7373 03f4 eb20 162e 4a19 e404
00000020: f0df 5d7f 7822 3e5d 24cd df2c 9eff aefa
00000030: 04fe 5fd8 360e 14d5 4b2b 3e55 1832 447f
00000040: dcab ea3d da04 e375 21eb c1d5 ff0c b77f
00000050: 114f 3a79 ee7c 73e4 5210 a1dd b2c2 c306
00000060: 15ca 1f52 1ad5 6475 3e47 e9b7 54c3 be64
00000070: 61db f34a 0ac2 7705 2633 f0ba ac1d cbf6
00000080: 35a2 ff7d 624d 0437 f2f1 c5bb 292c ce50
00000090: f2ce 2f16 f002 0e10 03c3 cc23 acf7 cf12
000000a0: 0818 4c01 fe13 df36 14c2 d92f e3eb 1103
000000b0: cd74 5fd6 07d4 cf10 710e 2605 04fa 4ff9
000000c0: dfa0 f9f7 e8f2 e12a eec2 c62a ae0b a9ff
000000d0: 1608 18f9 e914 ef0a 2ddc ec09 d1e6 ed11
000000e0: f240 6507 ddd4 fdf7 6d0f 31eb 43f8 3af6
000000f0: e5c4 17dc 1a22 100d d0b0 c3ef ac00 bb15
55 -86 93 41 73 106 107 34
46 -61 -14 -7 23 -86 27 6
-50 -75 11 48 115 115 3 -12
-21 32 22 46 74 25 -28 4
-16 -33 93 127 120 34 62 93
36 -51 -33 44 -98 -1 -82 -6
4 -2 95 -40 54 14 20 -43
75 43 62 85 24 50 68 127
-36 -85 -22 61 -38 4 -29 117
33 -21 -63 -43 -1 12 -73 127
17 79 58 121 -18 124 115 -28
82 16 -95 -35 -78 -62 -61 6
21 -54 31 82 26 -43 100 117
62 71 -23 -73 84 -61 -66 100
97 -37 -13 74 10 -62 119 5
38 51 -16 -70 -84 29 -53 -10
53 -94 -1 125 98 77 4 55
-14 -15 -59 -69 41 44 -50 80
-14 -50 47 22 -16 2 14 16
3 -61 -52 35 -84 -9 -49 18
8 24 76 1 -2 19 -33 54
20 -62 -39 47 -29 -21 17 3
-51 116 95 -42 7 -44 -49 16
113 14 38 5 4 -6 79 -7
-33 -96 -7 -9 -24 -14 -31 42
-18 -62 -58 42 -82 11 -87 -1
22 8 24 -7 -23 20 -17 10
45 -36 -20 9 -47 -26 -19 17
-14 64 101 7 -35 -44 -3 -9
109 15 49 -21 67 -8 58 -10
-27 -60 23 -36 26 34 16 13
-48 -80 -61 -17 -84 0 -69 21

tfl.pseudo_qconst1 i1 [32, 3, 3, 16]
00000000: f8f0 eba4 e2d7 bb81 0103 1aca 04fe ffd2
00000010: 2c28 e9a0 fac9 c8a3 1e2a f4fc 21e1 e7d4
00000020: 1e01 f9c1 c1fe c484 231f 03ad 2116 ccd6
00000030: ecdc fa08 0604 0dfb 1800 0cf1 fd04 fbf7
00000040: d6d0 fb23 0ffe df06 11fc f501 02f1 13e5
00000050: eee2 f11c 14f6 eb24 0c2e 0b1d ed11 ea0e
00000060: 0a21 26dd 2330 28bc f71b 2eea 3c58 1217
00000070: 1f03 26b3 052a 1cad 36f7 11d6 3b4a 00f9
00000080: 3b40 25d4 f60e fec4 073e 3913 4513 0026
00000090: dadc b4d8 f6e6 01c5 d64a b4ea c2fd ade2
000000a0: d40b edd5 b79a ee32 0f31 d8ea 91d4 d7db
000000b0: edd0 e2d5 b781 8d01 e614 ff10 b913 d2a6
000000c0: fcee 0b12 2bf2 0bd1 fa27 f3f1 58c6 103e
000000d0: 1a5e dcf2 c71e bb01 dcf0 1b26 5ba7 dd17
000000e0: 04ff 03ce 18ae b8b9 43f3 1a19 1ba4 e929
000000f0: 28ff eb16 20fb d44d 08c7 bfaa 05cb 18e5
-8 -16 -21 -92 -30 -41 -69 -127
1 3 26 -54 4 -2 -1 -46
44 40 -23 -96 -6 -55 -56 -93
30 42 -12 -4 33 -31 -25 -44
30 1 -7 -63 -63 -2 -60 -124
35 31 3 -83 33 22 -52 -42
-20 -36 -6 8 6 4 13 -5
24 0 12 -15 -3 4 -5 -9
-42 -48 -5 35 15 -2 -33 6
17 -4 -11 1 2 -15 19 -27
-18 -30 -15 28 20 -10 -21 36
12 46 11 29 -19 17 -22 14
10 33 38 -35 35 48 40 -68
-9 27 46 -22 60 88 18 23
31 3 38 -77 5 42 28 -83
54 -9 17 -42 59 74 0 -7
59 64 37 -44 -10 14 -2 -60
7 62 57 19 69 19 0 38
-38 -36 -76 -40 -10 -26 1 -59
-42 74 -76 -22 -62 -3 -83 -30
-44 11 -19 -43 -73 -102 -18 50
15 49 -40 -22 -111 -44 -41 -37
-19 -48 -30 -43 -73 -127 -115 1
-26 20 -1 16 -71 19 -46 -90
-4 -18 11 18 43 -14 11 -47
-6 39 -13 -15 88 -58 16 62
26 94 -36 -14 -57 30 -69 1
-36 -16 27 38 91 -89 -35 23
4 -1 3 -50 24 -82 -72 -71
67 -13 26 25 27 -92 -23 41
40 -1 -21 22 32 -5 -44 77
8 -57 -65 -86 5 -53 24 -27

tfl.pseudo_qconst2 i1 [32, 64]
00000000: f701 1414 09f2 f64d d967 3210 abe0 0d1f
00000010: fa24 c7c3 314a b452 ff1d c84b f9e0 c1cb
00000020: dd04 283e c1c7 be33 60c4 c419 7105 412a
00000030: 28f0 ae49 f5c7 7fe1 451e 6028 c1f5 217b
00000040: e742 fe39 f0ef 066d c2cf cf67 bade d3f1
00000050: 0bae 31e5 dd35 dcdf 4a44 f6c8 bfae 2cf2
00000060: 3343 b6df afed e2d1 061e f453 53bb d5cd
00000070: 2bdc aa38 ce1f 7fe6 60c3 fe4b fa23 bf06
00000080: 40d4 da15 1bb1 d5fa 10f7 f429 a465 d5ee
00000090: 3fdc ac40 2a11 d8e6 204e 5517 2935 4be7
000000a0: 0b54 aff4 a31c 0dde def1 2fbd 25c2 0021
000000b0: de29 bc07 6420 57e9 ef0d 090b a810 7ffd
000000c0: e7e1 0d29 cd3f 2b53 f261 01e8 26d3 b052
000000d0: 35c2 11b1 4a70 bad4 3f2d f61d db49 c432
000000e0: 25f7 a0d7 b0c7 0c77 7fe5 036a 4d17 f35f
000000f0: bde2 2e1e eefc 4d25 3844 c34b f2e5 d9e5
-9 1 20 20 9 -14 -10 77
-39 103 50 16 -85 -32 13 31
-6 36 -57 -61 49 74 -76 82
-1 29 -56 75 -7 -32 -63 -53
-35 4 40 62 -63 -57 -66 51
96 -60 -60 25 113 5 65 42
40 -16 -82 73 -11 -57 127 -31
69 30 96 40 -63 -11 33 123
-25 66 -2 57 -16 -17 6 109
-62 -49 -49 103 -70 -34 -45 -15
11 -82 49 -27 -35 53 -36 -33
74 68 -10 -56 -65 -82 44 -14
51 67 -74 -33 -81 -19 -30 -47
6 30 -12 83 83 -69 -43 -51
43 -36 -86 56 -50 31 127 -26
96 -61 -2 75 -6 35 -65 6
64 -44 -38 21 27 -79 -43 -6
16 -9 -12 41 -92 101 -43 -18
63 -36 -84 64 42 17 -40 -26
32 78 85 23 41 53 75 -25
11 84 -81 -12 -93 28 13 -34
-34 -15 47 -67 37 -62 0 33
-34 41 -68 7 100 32 87 -23
-17 13 9 11 -88 16 127 -3
-25 -31 13 41 -51 63 43 83
-14 97 1 -24 38 -45 -80 82
53 -62 17 -79 74 112 -70 -44
63 45 -10 29 -37 73 -60 50
37 -9 -96 -41 -80 -57 12 119
127 -27 3 106 77 23 -13 95
-67 -30 46 30 -18 -4 77 37
56 68 -61 75 -14 -27 -39 -27

tfl.pseudo_qconst3 i1 [64, 96]
00000000: a0c4 eb04 2581 d813 1ddd acb6 ba4c bf17
00000010: 7044 c254 b5ae e7d5 6ee6 ad42 87fa 3b0b
00000020: f659 10a4 f901 2be5 ddfb 35a8 6ab2 d612
00000030: 25f9 6c0c 5743 f5df e066 cb2e 2726 2861
00000040: 2240 52d8 fa7f 2608 2327 d232 463f 1b4d
00000050: c1de 50fd d207 1e4c 32ce 5091 39f7 35fc
00000060: ee58 f30e a060 4cc7 caf7 58ad dee4 49f9
00000070: f2c2 2df5 e83c e7fe d103 c8cf f1f2 db24
00000080: ed07 f500 3ea3 a052 2781 47d0 daf9 49fc
00000090: eaed 2602 ce31 2b08 8cae e2b3 e693 9f05
000000a0: bf3f fa26 30b6 bf96 1823 19f3 34b2 b1e7
000000b0: 322b 023f 3c52 1cc5 f6e1 93df 2251 61ea
000000c0: 9099 c727 1fff fc44 030f 03bb a15e c8d9
000000d0: ac02 aa9d e43b 3238 4390 98c7 d04b f6c6
000000e0: 884d dd21 ecde 1bf1 bc8f 8ff0 e221 5f14
000000f0: ad1a f5d3 8a22 daa2 f7d7 810c 232e 29a3
-96 -60 -21 4 37 -127 -40 19
29 -35 -84 -74 -70 76 -65 23
112 68 -62 84 -75 -82 -25 -43
110 -26 -83 66 -121 -6 59 11
-10 89 16 -92 -7 1 43 -27
-35 -5 53 -88 106 -78 -42 18
37 -7 108 12 87 67 -11 -33
-32 102 -53 46 39 38 40 97
34 64 82 -40 -6 127 38 8
35 39 -46 50 70 63 27 77
-63 -34 80 -3 -46 7 30 76
50 -50 80 -111 57 -9 53 -4
-18 88 -13 14 -96 96 76 -57
-54 -9 88 -83 -34 -28 73 -7
-14 -62 45 -11 -24 60 -25 -2
-47 3 -56 -49 -15 -14 -37 36
-19 7 -11 0 62 -93 -96 82
39 -127 71 -48 -38 -7 73 -4
-22 -19 38 2 -50 49 43 8
-116 -82 -30 -77 -26 -109 -97 5
-65 63 -6 38 48 -74 -65 -106
24 35 25 -13 52 -78 -79 -25
50 43 2 63 60 82 28 -59
-10 -31 -109 -33 34 81 97 -22
-112 -103 -57 39 31 -1 -4 68
3 15 3 -69 -95 94 -56 -39
-84 2 -86 -99 -28 59 50 56
67 -112 -104 -57 -48 75 -10 -58
-120 77 -35 33 -20 -34 27 -15
-68 -113 -113 -16 -30 33 95 20
-83 26 -11 -45 -118 34 -38 -94
-9 -41 -127 12 35 46 41 -93
